…
        "output_dim": 2,
        "input_embedding_dim": 24,
        "tod_embedding_dim": 24,
        "dow_embedding_dim": 24,
        "spatial_embedding_dim": 0,
        "adaptive_embedding_dim": 80,
        "feed_forward_dim": 256,
        "num_heads": 4,
        "num_layers": 3,
        "dropout": 0.1
    }
}
==========================================================================================
Layer (type:depth-idx)                   Output Shape              Param #
==========================================================================================
STAEformer                               [32, 1, 128, 2]           194,560
├─Linear: 1-1                            [32, 19, 128, 24]         120
├─Embedding: 1-2                         [32, 19, 128, 24]         576
├─Embedding: 1-3                         [32, 19, 128, 24]         168
├─ModuleList: 1-4                        --                        --
│    └─SelfAttentionLayer: 2-1           [32, 19, 128, 152]        --
│    │    └─AttentionLayer: 3-1          [32, 128, 19, 152]        93,024
│    │    └─Dropout: 3-2                 [32, 128, 19, 152]        --
│    │    └─LayerNorm: 3-3               [32, 128, 19, 152]        304
│    │    └─Sequential: 3-4              [32, 128, 19, 152]        78,232
│    │    └─Dropout: 3-5                 [32, 128, 19, 152]        --
│    │    └─LayerNorm: 3-6               [32, 128, 19, 152]        304
│    └─SelfAttentionLayer: 2-2           [32, 19, 128, 152]        --
│    │    └─AttentionLayer: 3-7          [32, 128, 19, 152]        93,024
│    │    └─Dropout: 3-8                 [32, 128, 19, 152]        --
│    │    └─LayerNorm: 3-9               [32, 128, 19, 152]        304
│    │    └─Sequential: 3-10             [32, 128, 19, 152]        78,232
│    │    └─Dropout: 3-11                [32, 128, 19, 152]        --
│    │    └─LayerNorm: 3-12              [32, 128, 19, 152]        304
│    └─SelfAttentionLayer: 2-3           [32, 19, 128, 152]        --
│    │    └─AttentionLayer: 3-13         [32, 128, 19, 152]        93,024
│    │    └─Dropout: 3-14                [32, 128, 19, 152]        --
│    │    └─LayerNorm: 3-15              [32, 128, 19, 152]        304
│    │    └─Sequential: 3-16             [32, 128, 19, 152]        78,232
│    │    └─Dropout: 3-17                [32, 128, 19, 152]        --
│    │    └─LayerNorm: 3-18              [32, 128, 19, 152]        304
├─ModuleList: 1-5                        --                        --
│    └─SelfAttentionLayer: 2-4           [32, 19, 128, 152]        --
│    │    └─AttentionLayer: 3-19         [32, 19, 128, 152]        93,024
│    │    └─Dropout: 3-20                [32, 19, 128, 152]        --
│    │    └─LayerNorm: 3-21              [32, 19, 128, 152]        304
│    │    └─Sequential: 3-22             [32, 19, 128, 152]        78,232
│    │    └─Dropout: 3-23                [32, 19, 128, 152]        --
│    │    └─LayerNorm: 3-24              [32, 19, 128, 152]        304
│    └─SelfAttentionLayer: 2-5           [32, 19, 128, 152]        --
│    │    └─AttentionLayer: 3-25         [32, 19, 128, 152]        93,024
│    │    └─Dropout: 3-26                [32, 19, 128, 152]        --
│    │    └─LayerNorm: 3-27              [32, 19, 128, 152]        304
│    │    └─Sequential: 3-28             [32, 19, 128, 152]        78,232
│    │    └─Dropout: 3-29                [32, 19, 128, 152]        --
│    │    └─LayerNorm: 3-30              [32, 19, 128, 152]        304
│    └─SelfAttentionLayer: 2-6           [32, 19, 128, 152]        --
│    │    └─AttentionLayer: 3-31         [32, 19, 128, 152]        93,024
│    │    └─Dropout: 3-32                [32, 19, 128, 152]        --
│    │    └─LayerNorm: 3-33              [32, 19, 128, 152]        304
│    │    └─Sequential: 3-34             [32, 19, 128, 152]        78,232
│    │    └─Dropout: 3-35                [32, 19, 128, 152]        --
│    │    └─LayerNorm: 3-36              [32, 19, 128, 152]        304
├─Linear: 1-6                            [32, 128, 2]              5,778
==========================================================================================
Total params: 1,232,386
Trainable params: 1,232,386
Non-trainable params: 0
Total mult-adds (M): 33.21
==========================================================================================
Input size (MB): 1.25
Forward/backward pass size (MB): 4975.82
Params size (MB): 4.15
Estimated Total Size (MB): 4981.22
…
