…
        "output_dim": 2,
        "input_embedding_dim": 24,
        "tod_embedding_dim": 24,
        "dow_embedding_dim": 24,
        "spatial_embedding_dim": 0,
        "adaptive_embedding_dim": 80,
        "feed_forward_dim": 256,
        "num_heads": 4,
        "num_layers": 3,
        "dropout": 0.1
    }
}
==========================================================================================
Layer (type:depth-idx)                   Output Shape              Param #
==========================================================================================
STAEformer                               [16, 1, 200, 2]           560,000
├─Linear: 1-1                            [16, 35, 200, 24]         120
├─Embedding: 1-2                         [16, 35, 200, 24]         1,152
├─Embedding: 1-3                         [16, 35, 200, 24]         168
├─ModuleList: 1-4                        --                        --
│    └─SelfAttentionLayer: 2-1           [16, 35, 200, 152]        --
│    │    └─AttentionLayer: 3-1          [16, 200, 35, 152]        93,024
│    │    └─Dropout: 3-2                 [16, 200, 35, 152]        --
│    │    └─LayerNorm: 3-3               [16, 200, 35, 152]        304
│    │    └─Sequential: 3-4              [16, 200, 35, 152]        78,232
│    │    └─Dropout: 3-5                 [16, 200, 35, 152]        --
│    │    └─LayerNorm: 3-6               [16, 200, 35, 152]        304
│    └─SelfAttentionLayer: 2-2           [16, 35, 200, 152]        --
│    │    └─AttentionLayer: 3-7          [16, 200, 35, 152]        93,024
│    │    └─Dropout: 3-8                 [16, 200, 35, 152]        --
│    │    └─LayerNorm: 3-9               [16, 200, 35, 152]        304
│    │    └─Sequential: 3-10             [16, 200, 35, 152]        78,232
│    │    └─Dropout: 3-11                [16, 200, 35, 152]        --
│    │    └─LayerNorm: 3-12              [16, 200, 35, 152]        304
│    └─SelfAttentionLayer: 2-3           [16, 35, 200, 152]        --
│    │    └─AttentionLayer: 3-13         [16, 200, 35, 152]        93,024
│    │    └─Dropout: 3-14                [16, 200, 35, 152]        --
│    │    └─LayerNorm: 3-15              [16, 200, 35, 152]        304
│    │    └─Sequential: 3-16             [16, 200, 35, 152]        78,232
│    │    └─Dropout: 3-17                [16, 200, 35, 152]        --
│    │    └─LayerNorm: 3-18              [16, 200, 35, 152]        304
├─ModuleList: 1-5                        --                        --
│    └─SelfAttentionLayer: 2-4           [16, 35, 200, 152]        --
│    │    └─AttentionLayer: 3-19         [16, 35, 200, 152]        93,024
│    │    └─Dropout: 3-20                [16, 35, 200, 152]        --
│    │    └─LayerNorm: 3-21              [16, 35, 200, 152]        304
│    │    └─Sequential: 3-22             [16, 35, 200, 152]        78,232
│    │    └─Dropout: 3-23                [16, 35, 200, 152]        --
│    │    └─LayerNorm: 3-24              [16, 35, 200, 152]        304
│    └─SelfAttentionLayer: 2-5           [16, 35, 200, 152]        --
│    │    └─AttentionLayer: 3-25         [16, 35, 200, 152]        93,024
│    │    └─Dropout: 3-26                [16, 35, 200, 152]        --
│    │    └─LayerNorm: 3-27              [16, 35, 200, 152]        304
│    │    └─Sequential: 3-28             [16, 35, 200, 152]        78,232
│    │    └─Dropout: 3-29                [16, 35, 200, 152]        --
│    │    └─LayerNorm: 3-30              [16, 35, 200, 152]        304
│    └─SelfAttentionLayer: 2-6           [16, 35, 200, 152]        --
│    │    └─AttentionLayer: 3-31         [16, 35, 200, 152]        93,024
│    │    └─Dropout: 3-32                [16, 35, 200, 152]        --
│    │    └─LayerNorm: 3-33              [16, 35, 200, 152]        304
│    │    └─Sequential: 3-34             [16, 35, 200, 152]        78,232
│    │    └─Dropout: 3-35                [16, 35, 200, 152]        --
│    │    └─LayerNorm: 3-36              [16, 35, 200, 152]        304
├─Linear: 1-6                            [16, 200, 2]              10,642
==========================================================================================
Total params: 1,603,266
Trainable params: 1,603,266
Non-trainable params: 0
Total mult-adds (M): 16.69
==========================================================================================
Input size (MB): 1.79
Forward/backward pass size (MB): 7160.88
Params size (MB): 4.17
Estimated Total Size (MB): 7166.85
…
